Chatbot/data.pth (torch, 13226 bytes, 6 tensors)

l1.weight f4 [8, 189]
-0.16750258 0.4208566 -0.3411526 0.60054034 0.5929559 -0.56111884 -0.2922919 0.056188907
-0.67913085 -0.3703969 0.552048 0.1623337 -0.15102021 -0.52140856 -0.10437835 -0.83051527
-0.16940892 0.5754842 0.7407411 0.027297612 0.51470166 0.08021322 0.119825765 0.543013
-0.076976985 0.44579124 -0.8039467 0.2640439 0.24075507 -0.28179637 -0.8125854 -0.7111761
-0.37886798 0.052120052 -0.42889157 -0.4445067 -0.15869907 0.63944846 -0.23253822 0.4092885
0.30055872 0.7302631 0.2649659 0.26163906 -0.03261472 0.2501893 -0.08654467 0.5668654
0.964154 -0.45140105 -0.25302622 -0.53159565 -0.29231003 -0.41081357 0.40537128 0.24534309
0.63941836 -0.38317123 -0.7111496 0.16158105 -0.1549546 -0.25300366 0.3993977 -0.018084189
-0.132158 -0.45200285 -0.41878158 0.45403183 0.7524072 0.7396887 0.53209704 -0.32601
0.7962182 0.26674584 -0.7110331 0.6334798 -0.1495511 -0.71101165 -0.711034 0.25807688
0.6416844 0.10853061 -0.71100485 -0.11735573 0.9899525 0.6487004 -0.05349559 -0.5159021
-0.010406315 0.3058268 -0.32105905 0.6003035 0.7731488 -0.2936776 0.555598 0.16512045
0.7617109 0.03418038 0.30606243 0.1735687 -0.03496143 0.9804183 -0.42458716 -0.084694155
0.16975869 -0.29224846 0.955665 0.12170222 -0.47016558 -0.48210746 -0.16082956 0.6477571
-0.68313634 -0.31739476 -0.17635936 -0.31660554 -0.7939291 0.30923766 -0.08152446 -0.34602776
-0.46686167 0.98078895 -0.12239763 0.22452039 -0.16947368 -0.7451864 -0.9522367 -0.60308784
0.6437281 0.6106876 -0.05360961 -0.058849294 -0.5010236 -0.13413887 -0.53050596 0.0782243
-0.754539 -0.2683419 0.3896703 -0.15332742 -0.4679815 0.39216092 -0.7110765 -0.119735435
-0.42932478 0.16908282 -0.39003384 -0.6092179 -0.6046195 0.8985529 -0.4195916 0.48820025
0.119947515 -0.26670942 0.34774247 -0.04395095 -0.6122632 0.6169864 0.18718341 0.7726622
-0.25615853 0.87018377 0.90320796 0.36939943 -0.79300314 0.47189257 0.39384627 0.013300481
-0.65272814 -0.122789755 -0.26838976 0.6889156 0.426221 -0.71117455 0.029381156 0.62061906
-0.38507146 -0.38680914 -0.4736678 -0.41301343 0.22646964 -0.19474375 -0.71096295 0.27445444
-0.21856089 0.5624994 0.814312 0.16477491 0.5279734 -0.28657475 0.5052561 0.15041266
0.5194468 0.53547686 0.62978125 -0.2985034 -0.62419903 -0.80001915 0.53003496 0.59777176
0.39231166 -0.13171495 0.8002866 0.030032575 -0.93631476 0.43701178 -0.5991838 0.54121614
0.75295067 0.22943006 0.9101602 -0.09992279 -0.28483003 0.5915765 0.23414354 0.6795268
0.79731375 -0.5731397 0.6847881 0.18182883 0.7932581 0.00018936815 0.034174107 -0.87758106
0.25364742 -0.20688044 -0.5915618 -0.16691326 0.64946693 -0.6269004 -0.29391223 0.56175756
0.8647292 -0.12047917 0.0118534835 -0.50098294 -0.61482364 -0.71654916 0.6919406 0.58066696
-0.19228785 -0.3054752 1.1326567 -0.5263978 0.8013776 0.34466234 0.23769405 0.8800053
0.49660474 -0.04094932 0.5110136 -0.45105705 0.5772667 0.47175798 -0.69784373 -0.26263577
00000000: cc85 2bbe 847a d73e 8eab aebe 03bd 193f
00000010: f5cb 173f 7ca5 0fbf 49a7 95be 5726 663d
00000020: 85db 2dbf aaa4 bdbe 0553 0d3f ce3a 263e
00000030: 0ba5 1abe 087b 05bf 51c4 d5bd a69c 54bf
00000040: 8879 2dbe ef52 133f 35a1 3d3f 3e9f df3c
00000050: 7dc3 033f d446 a43d 3667 f53d e602 0b3f
00000060: 1ca6 9dbd c03e e43e 73cf 4dbf c330 873e
00000070: 7f88 763e 9d47 90be 9905 50bf a30f 36bf
00000080: fcfa c1be d67b 553d ad97 dbbe 6296 e3be
00000090: 0282 22be e5b2 233f 801e 6ebe 438e d13e
000000a0: d5e2 993e 86f2 3a3f 9ca9 873e 8ef5 853e
000000b0: 0397 05bd d018 803e 553e b1bd 171e 113f
000000c0: ccd2 763f 0a1e e7be a78c 81be a716 08bf
000000d0: a9a9 95be 2856 d2be d38c cf3e 383b 7b3e
000000e0: ecb0 233f 052f c4be e60d 36bf 8175 253e
000000f0: 6bac 1ebe b289 81be db7d cc3e 4b25 94bc
00000100: 6d54 07be eb6c e7be 8a6a d6be dc76 e83e
00000110: c29d 403f 3d5c 3d3f 8337 083f c8ea a6be
00000120: f5d4 4b3f e992 883e 4406 36bf bb2b 223f
00000130: ec23 19be dc04 36bf 5306 36bf a722 843e
00000140: 6e45 243f 4c45 de3d 6a04 36bf 3358 f0bd
00000150: 876d 7d3f 3b11 263f 311e 5bbd 2912 04bf
00000160: 407f 2abc 5595 9c3e da61 a4be 7dad 193f
00000170: 14ed 453f e95c 96be ac3b 0e3f 5615 293e
00000180: 7cff 423f ba00 0c3d 37b4 9c3e febb 313e
00000190: b733 0fbd b2fc 7a3f 7d63 d9be 2174 adbd
000001a0: 39d5 2d3e 97a1 95be 76a6 743f 033f f93d
000001b0: 8bb9 f0be cad6 f6be 81b0 24be 69d3 253f
000001c0: 06e2 2ebf 9181 a2be 8c97 34be 1f1a a2be
000001d0: f03e 4bbf 6654 9e3e 4cf6 a6bd 8d2a b1be
000001e0: 7e08 efbe fc14 7b3f 9cab fabd ace8 653e
000001f0: 828a 2dbe 89c4 3ebf c9c5 73bf f763 1abf
00000200: 5dcb 243f 0656 1c3f c095 5bbd f50b 71bd
00000210: 1543 00bf b35b 09be 3dcf 07bf 1034 a03d
00000220: 7829 41bf 1c64 89be de82 c73e dd01 1dbe
00000230: 459b efbe 51c9 c83e 1c09 36bf da37 f5bd
00000240: 75d0 dbbe 0c24 2d3e 84b2 c7be b4f5 1bbf
00000250: 58c8 1abf 9007 663f b6d4 d6be 62f5 f93e
00000260: 0ba7 f53d 238e 88be 4d0b b23e e905 34bd
00000270: 48bd 1cbf d2f2 1d3f 02ad 3f3e 31cd 453f
00000280: 3627 83be 5dc4 5e3f a338 673f ec21 bd3e
00000290: 4102 4bbf e79b f13e 38a6 c93e 43ea 593c
000002a0: 3119 27bf 3279 fbbd 626a 89be c65c 303f
000002b0: a439 da3e 890f 36bf c0b0 f03c e4e0 1e3f
000002c0: 1628 c5be d90b c6be 9684 f2be 7f76 d3be
000002d0: a8e7 673e e86a 47be ab01 36bf 4b85 8c3e
000002e0: 6dce 5fbe f6ff 0f3f c076 503f c1ba 283e
000002f0: 4429 073f edb9 92be 7758 013f c705 1a3e
00000300: 77fa 043f 0315 093f 5839 213f 70d5 98be
00000310: 82cb 1fbf 0ece 4cbf 5fb0 073f 9207 193f
00000320: 13dd c83e 49e0 06be 95df 4c3f e006 f63c
00000330: 53b2 6fbf 02c0 df3e 1c64 19bf 248d 0a3f
00000340: 60c1 403f b7ef 6a3e 4200 693f 52a4 ccbd
00000350: 3ed5 91be 8f71 173f 53c3 6f3e 78f5 2d3f
00000360: c11c 4c3f 49b9 12bf 464e 2f3f 5631 3a3e
00000370: f612 4b3f 2091 4639 26fa 0b3d 27a9 60bf
00000380: 13de 813e 77d8 53be 9870 17bf 4feb 2abe
00000390: 7743 263f 8b7c 20bf aa7b 96be 58cf 0f3f
000003a0: e55e 5d3f c8bd f6bd 1d35 423c 6b40 00bf
000003b0: 1565 1dbf c46f 37bf 0523 313f 97a6 143f
000003c0: 1be7 44be 3f67 9cbe e5fa 903f 02c2 06bf
000003d0: 1527 4d3f 9577 b03e 1266 733e 0748 613f
000003e0: fa42 fe3e 79ba 27bd cad1 023f f3f0 e6be
000003f0: c0c7 133f 438a f13e e3a5 32bf 3278 86be

l1.bias f4 [8]
0.71103275 1.0035222 0.7005525 0.76317763 0.7566618 0.807015 0.8359937 0.7690602
00000000: 3e06 363f 6a73 803f 6957 333f 9c5f 433f
00000010: 96b4 413f 8998 4e3f af03 563f 21e1 443f

l2.weight f4 [8, 8]
0.88013595 -0.99514204 1.1500022 0.58259654 -1.0174384 0.117660396 0.7211667 -0.49055967
-0.90315306 -0.23985703 0.5942468 1.0655373 -0.7836709 0.11286662 0.93865603 -0.82591337
1.2371833 1.1808485 -0.47205314 -0.7914453 0.79836607 1.283739 0.2630841 -0.58658034
0.9117824 0.9513941 0.8440744 -1.1967223 0.9177968 -1.2671838 -0.38936278 0.84368324
-1.3423219 0.5551145 0.7290797 0.30037302 0.8909545 0.51649487 0.9054405 -1.2537584
0.9408852 -1.2183485 -0.13923462 0.81445116 1.0866882 1.0628116 0.04507015 1.0679291
-0.5991908 0.214988 1.0754268 0.92832565 0.120172046 1.1152202 -1.3695318 0.564768
0.25578237 1.0173258 0.13225687 0.97009206 -1.1258825 -0.80454403 0.98429424 0.9314733
00000000: 9750 613f a1c1 7ebf 4633 933f 0c25 153f
00000010: 6c3b 82bf eff7 f03d 619e 383f a32a fbbe
00000020: 0a35 67bf 159d 75be 8f20 183f 8763 883f
00000030: a89e 48bf 9d26 e73d c34b 703f 0f6f 53bf
00000040: 065c 9e3f 0b26 973f f3b0 f1be 299c 4abf
00000050: b861 4c3f 8f51 a43f f6b2 863e 212a 16bf
00000060: 926a 693f 908e 733f 4315 583f 322e 99bf
00000070: bbf4 6a3f 1433 a2bf 8f5a c7be a0fb 573f
00000080: 34d1 abbf fc1b 0e3f f8a4 3a3f 7eca 993e
00000090: 9815 643f 0239 043f f3ca 673f 287b a0bf
000000a0: dadd 703f d8f2 9bbf 8593 0ebe df7f 503f
000000b0: 9918 8b3f 360a 883f 7a9b 383d e7b1 883f
000000c0: 9164 19bf d025 5c3e 96a7 893f c0a6 6d3f
000000d0: c31c f63d 89bf 8e3f d14c afbf a394 103f
000000e0: e8f5 823e bb37 823f 586e 073e f457 783f
000000f0: eb1c 90bf 99f6 4dbf b5fa 7b3f 0975 6e3f

l2.bias f4 [8]
0.83842766 0.72671956 0.11832249 0.6608268 0.56144875 0.6016383 0.33218694 0.29803392
00000000: 32a3 563f 4b0a 3a3f 1053 f23d f22b 293f
00000010: 1bbb 0f3f f804 1a3f 6814 aa3e e797 983e

l3.weight f4 [33, 8]
0.053827867 0.7931504 -0.9811027 -0.8407923 -1.0535417 0.72610766 -0.8548009 0.9252976
-0.8342605 -0.879533 0.4881169 1.0284268 0.9220603 -1.1718956 -1.363722 -0.66042346
-1.1099734 -0.55909026 -0.27302325 1.1232864 -0.93338543 0.5841845 0.33762044 -1.1522437
-0.303446 -0.27223125 -0.6285839 0.3142557 -0.68381214 0.73828775 1.1601452 -0.9118859
0.89641964 -0.75162446 -0.7209763 0.83128786 -0.9352162 0.38769037 -0.1489657 -0.03263819
0.6939263 -0.29541013 0.18844683 -0.40886518 -0.9601995 1.0264541 -1.3794901 0.08454583
1.1168507 1.0071301 -0.6311542 -0.9364936 0.18970425 0.3155447 -0.9851725 -0.08060098
1.183278 -0.025342725 0.85892296 0.55357265 -0.35036147 -0.6720596 -1.0257337 -0.044658117
-0.9703571 -1.1140273 0.67273337 0.43690512 0.012487995 -1.188843 -1.1407793 1.0140158
0.98610914 0.29423597 -1.0504799 -0.7841161 -1.3509128 0.523737 0.91931814 -0.31602868
0.767731 1.1892947 -1.2081598 -0.7566228 0.08241367 -0.19820616 0.90852326 -0.20923851
-0.92832273 -0.23808573 1.1838517 0.056735646 -0.9610399 0.036445454 0.763777 -0.89603126
0.6015612 -0.12124658 -1.0630616 0.4854692 0.5477439 -1.0971179 -1.0956306 1.1780143
0.9405771 -0.49055892 0.44671082 -0.5160303 -0.88105524 0.41827777 0.632366 -0.527765
-0.3439958 0.63781834 0.8495259 -0.7904421 0.6337513 -0.7995828 -1.1194005 0.47206518
0.48117614 0.61629456 0.117240645 -1.0020876 0.76741785 -0.9596941 0.7156216 0.14671014
-0.98312914 -0.5950269 -1.1650323 0.8123567 -0.03656642 0.74456614 -0.91842496 0.5922611
-0.7151306 -0.2505106 0.22322644 1.0828328 -1.0200284 -0.7389939 0.45648542 0.1830966
-0.28662592 1.1411399 -0.61613625 -1.1938938 0.3784453 -0.87103117 -0.7910393 1.0498228
-0.88392216 -0.38907373 0.31613594 0.3669756 1.0254521 -0.16002113 0.07080196 -0.94770193
-0.5684778 -0.20018649 1.1686653 1.0915533 -0.8493301 -0.44073096 -1.0136695 -0.8499792
-0.75168407 -0.30209213 0.5398446 -0.20567305 0.057798762 -0.33670402 1.1046057 0.20412424
0.7729242 0.8516257 -0.8383807 0.3594548 1.2022687 -0.35977793 -0.98732907 -0.8652462
1.0663502 1.1784021 -1.1876287 -1.0167392 1.0006049 -1.1902423 -0.45542336 0.15784688
-0.062580526 0.2226639 -0.69767445 -0.13792805 -0.46890336 -0.62433875 1.0403905 1.0418148
-0.692845 0.9751274 0.11144503 -1.0214864 0.9257484 0.63268435 -0.9600013 -0.6043911
-1.0298159 -0.98343325 0.23519659 -0.9068758 0.1424118 0.632443 1.2457792 -1.2788266
-0.50340104 -0.63551944 0.97604465 0.014685386 -1.3270706 0.84515786 -0.9785078 -1.2346972
-0.3887032 -0.8702128 0.7598887 -1.1943115 0.14538352 0.8351671 -0.20335923 -1.3387192
-1.0071716 -0.65862834 -0.83526844 -1.186009 -1.2533231 1.1614443 1.0001364 -0.4324929
0.27741784 0.373064 -0.5205513 -0.7884062 0.96498 0.22217324 0.9346602 -1.2088385
-0.47454676 -0.69396985 0.40190008 0.6506317 -0.9961845 0.10747167 -1.0883023 0.6887031
00000000: 9c7a 5c3d e80b 4b3f 8c29 7bbf 2a3e 57bf
00000010: 74da 86bf 31e2 393f 3bd4 5abf 4ee0 6c3f
00000020: 1992 55bf 1329 61bf 75ea f93e 7da3 833f
00000030: 250c 6c3f ad00 96bf 718e aebf 8311 29bf
00000040: 9c13 8ebf 8a20 0fbf b4c9 8bbe d9c7 8f3f
00000050: 59f2 6ebf 1e8d 153f 96dc ac3e b97c 93bf
00000060: 465d 9bbe e561 8bbe e0ea 20bf 20e6 a03e
00000070: 500e 2fbf 6d00 3d3f a37f 943f 5b71 69bf
00000080: c27b 653f 766a 40bf e791 38bf 48cf 543f
00000090: 546a 6fbf 5a7f c63e 778a 18be 9faf 05bd
000000a0: 27a5 313f ff3f 97be 35f8 403e c756 d1be
000000b0: a2cf 75bf d962 833f 2293 b0bf 5d26 ad3d
000000c0: f7f4 8e3f a4e9 803f 5293 21bf 0bbe 6fbf
000000d0: d541 423e 138f a13e 4434 7cbf 2012 a5bd
000000e0: a775 973f 8c9b cfbc 60e2 5b3f f0b6 0d3f
000000f0: 9462 b3be 190c 2cbf 3e4b 83bf 6eeb 36bd
00000100: 5369 78bf 7298 8ebf 4138 2c3f 07b2 df3e
00000110: 739a 4c3c 022c 98bf 0e05 92bf 45cb 813f
00000120: a671 7c3f 19a6 963e 2076 86bf d5bb 48bf
00000130: b6ea acbf a113 063f 6f58 6b3f 83ce a1be
00000140: 058a 443f cf3a 983f fba4 9abf 08b2 41bf
00000150: 80c8 a83d 8ef6 4abe fb94 683f 9f42 56be
00000160: 8fa6 6dbf bfcc 73be 7488 973f a363 683d
00000170: b606 76bf d447 153d e486 433f 4e62 65bf
00000180: eaff 193f 2050 f8bd 6712 88bf 6b8f f83e
00000190: f238 0c3f 5c6e 8cbf a03d 8cbf 2cc9 963f
000001a0: a9c9 703f 8a2a fbbe 48b7 e43e 901a 04bf
000001b0: d68c 61bf 8128 d63e bde2 213f 9b1b 07bf
000001c0: 3820 b0be 1048 233f 887a 593f 6a5a 4abf
000001d0: 863d 223f 75b1 4cbf 8448 8fbf 87b2 f13e
000001e0: b85c f63e 7bc5 1d3f dd1b f03d 6844 80bf
000001f0: 7f75 443f 83ae 75bf fa32 373f 2f3b 163e
00000200: 5aae 7bbf af53 18bf c71f 95bf 9cf6 4f3f
00000210: acc6 15bd e39b 3e3f e61d 6bbf 6c9e 173f
00000220: cd12 37bf ed42 80be 7995 643e 449a 8a3f
00000230: 4a90 82bf b42e 3dbf 75b8 e93e ad7d 3b3e
00000240: a2c0 92be df10 923f 1bbb 1dbf 83d1 98bf
00000250: 95c3 c13e e6fb 5ebf 8d81 4abf 9860 863f
00000260: b948 62bf ac34 c7be 92dc a13e 3ae4 bb3e
00000270: 0442 833f 94dc 23be 9e00 913d 989c 72bf
00000280: c387 11bf b0fd 4cbe d396 953f 05b8 8b3f
00000290: b36d 59bf 7da7 e1be ecbf 81bf 3d98 59bf
000002a0: 5e6e 40bf d2ab 9abe 4133 0a3f f59b 52be
000002b0: 65be 6c3d 7864 acbe b863 8d3f f205 513e
000002c0: 5cde 453f 2404 5a3f 1ea0 56bf 760a b83e
000002d0: f1e3 993f d034 b8be 99c1 7cbf c680 5dbf
000002e0: 2a7e 883f e1d5 963f 3804 98bf 8324 82bf
000002f0: d213 803f dc59 98bf 402d e9be 9da2 213e
00000300: 382a 80bd 0102 643e cb9a 32bf 033d 0dbe
00000310: 1a14 f0be aad4 1fbf 842b 853f 305a 853f
00000320: 4a5e 31bf f3a1 793f 4b3d e43d 11c0 82bf
00000330: d9fd 6c3f 9af7 213f a5c2 75bf 60b9 1abf
00000340: 02d1 83bf 48c2 7bbf 60d7 703e 0329 68bf
00000350: 66d4 113e c9e7 213f b175 9f3f 97b0 a3bf
00000360: e4de 00bf 67b1 22bf 10de 793f f99a 703c
00000370: 73dd a9bf 445c 583f 7d7f 7abf 8f0a 9ebf
00000380: 1b04 c7be 44c6 5ebf 1188 423f 33df 98bf
00000390: 6bdf 143e 83cd 553f 673d 50be 275b abbf
000003a0: 00eb 80bf de9b 28bf 27d4 55bf 25cf 97bf
000003b0: e46c a0bf 35aa 943f 7804 803f b66f ddbe
000003c0: b609 8e3e 3f02 bf3e da42 05bf fdd4 49bf
000003d0: ee08 773f 6281 633e e445 6f3f 38bb 9abf
000003e0: cbf7 f2be 02a8 31bf d9c5 cd3e cd8f 263f
000003f0: f305 7fbf 1b1a dc3d 7d4d 8bbf d94e 303f

l3.bias f4 [33]
0.29281813 0.59426236 0.026910355 -0.736639 -0.6693508 -0.13114935 -0.0828027 -0.12607688
0.6167976 -0.28185228 -0.18923494 -0.4482529 -0.34237 -0.6259705 0.28180817 -0.69467866
0.70855385 -0.14350022 0.844185 0.16598405 0.3291908 -0.36311516 0.40946716 -0.06413401
-0.4433922 0.65278095 -0.5478164 -0.29258573 0.3209146 0.83854026 -0.17960528 -0.64502406
0.2999284
00000000: 42ec 953e 9421 183f 1b73 dc3c 6094 3cbf
00000010: 935a 2bbf 044c 06be 7694 a9bd 4c1a 01be
00000020: 73e6 1d3f f14e 90be cec6 41be 6781 e5be
00000030: 1f4b afbe 9a3f 20bf 2949 903e 76d6 31bf
00000040: c963 353f b9f1 12be 821c 583f b9f7 293e
00000050: b28b a83e 3bea b9be aea5 d13e b158 83bd
00000060: 4d04 e3be a71c 273f b23d 0cbf cccd 95be
00000070: eb4e a43e 93aa 563f 72ea 37be 4c20 25bf
00000080: 3790 993e
